Question_howto/cnn.pt (torch_old, 237031 bytes, 10 tensors)

conv1.weight f4 [6, 3, 5, 5]
-0.035058122 0.046614103 -0.10941206 0.05805688 0.02075902 0.1003859 0.037834764 0.007115577
0.00026911424 0.07327566 0.03385223 0.03755589 0.0072273295 0.042132188 0.09881887 0.04276094
0.0860739 0.04025494 -0.016037254 0.082141325 0.03077845 -0.0099495305 0.005759694 0.06273586
-0.09045684 0.053190194 0.037203096 -0.11050342 0.068363436 -0.046528693 0.05588834 0.021992099
0.071786664 0.020426238 -0.027985139 -0.021579245 -0.07736314 0.055636898 0.095129326 0.020691067
-0.0018127769 -0.0010548187 -0.020251118 -0.055919122 -0.021329539 -0.003201796 0.09550541 -0.09304782
-0.03428065 -0.02102207 -0.019411681 0.0031803343 -0.082980156 -0.07993665 -0.097522445 0.008824676
0.08159561 0.102374226 -0.0050954963 0.00348638 0.060166728 0.08464023 -0.004637284 -0.011957152
-0.04804861 -0.083778106 0.08196302 0.019529168 -0.06286484 -0.08534028 -0.06314332 -0.10631727
0.066555746 -0.08231313 -0.052789375 0.08200344 -0.092597045 -0.08392416 -0.037113715 0.032653008
-0.06326403 0.046887938 0.023513334 0.04363695 -0.017780907 -0.07114307 -0.06866272 -0.047800507
-0.108935796 -0.04190049 -0.018936351 0.049279112 -0.08248804 -0.0010073507 -0.05572583 -0.06516774
-0.035994735 0.03411432 -0.06578887 -0.085217245 -0.00034095335 -0.0378811 -0.012326065 -0.08400531
0.01741371 0.061543386 0.062094007 -0.061830804 -0.06771789 -0.054831095 0.10737084 -0.03271803
0.045015994 0.0026948508 -0.05794993 0.044903465 -0.10168927 -0.03817003 -0.09785467 0.09281383
0.057803974 0.0742333 0.023623586 -0.0121586695 -0.004385067 -0.09471297 -0.057403672 -0.08948182
0.06651933 -0.10649321 0.10352695 -0.038125616 0.029650018 0.09892404 -0.10138297 0.008738186
-0.102188915 -0.012917941 0.0339331 -0.09077808 0.009199597 -0.03764802 -0.01733646 -0.07632333
-0.016397404 -0.051966447 0.07807216 -0.06641948 -0.104985505 0.11328435 0.05130098 0.10091474
0.10450727 0.021354645 -0.02814982 -0.040573426 0.06885821 -0.0466423 0.025313618 -0.08243672
0.09506696 0.05191474 0.111480184 0.052369926 0.044579245 -0.008822822 -0.045229185 -0.06503954
0.091112405 0.022229433 0.11376768 -0.03128345 -0.072872065 -0.08433982 -0.026097395 0.02900006
-0.004023706 0.018810429 0.008474316 -0.09318894 -0.0035786321 0.08474179 0.057360455 0.04380214
0.106981725 -0.08586855 0.06256385 -0.01293538 -0.10946104 -0.10775727 -0.11415964 -0.039865024
0.08954049 0.09420185 0.113068044 -0.11148727 0.029571224 0.040024813 -0.07471216 0.017408287
0.012916808 0.02077766 -0.11208533 0.008181364 0.00489507 -0.035507835 0.106765024 0.012610169
0.030372398 0.05750304 0.057696477 0.004818156 0.09084462 -0.018392075 0.06030274 -0.06638769
-0.051812686 -0.09920193 0.09024054 -0.023329528 -0.018065438 0.04877585 -0.027109165 -0.10247489
-0.004871849 -0.0101173585 0.10153324 0.021566551 0.043362036 0.049881246 0.09551326 0.06362182
0.02433403 -0.08664225 -0.10178461 -0.06461648 0.059292033 -0.03302762 0.0054709557 -0.0008025099
-0.046060294 0.07567799 0.056982156 0.09708768 -0.03255846 0.020360434 -0.09627606 -0.10484984
0.048815273 0.043071188 -0.09273648 -0.054253016 0.0639813 0.013196545 -0.008425675 0.033681456
00000000: 1b99 0fbd 6eee 3e3d 6e13 e0bd 0dcd 6d3d
00000010: d20e aa3c 1f97 cd3d a0f8 1a3d c929 e93b
00000020: e717 8d39 8d11 963d a3a8 0a3d 34d4 193d
00000030: 3cd3 ec3b cd92 2c3d 8c61 ca3d 1826 2f3d
00000040: 8347 b03d 5de2 243d 8f60 83bc b639 a83d
00000050: 1723 fc3c 5b03 23bc d1bb bc3b a97b 803d
00000060: 7041 b9bd f6dd 593d 4662 183d 9e4f e2bd
00000070: 2102 8c3d df94 3ebd 2ceb 643d c628 b43c
00000080: e304 933d ed54 a73c 1741 e5bc f5c6 b0bc
00000090: 9170 9ebd 84e3 633d 2ad3 c23d 5080 a93c
000000a0: b39a edba d841 8aba ace5 a5bc 730b 65bd
000000b0: 49bb aebc 39d5 51bb 5798 c33d db8f bebd
000000c0: de69 0cbd 7a36 acbc 3f05 9fbc 286d 503b
000000d0: 80f1 a9bd d4b5 a3bd d9b9 c7bd 6095 103c
000000e0: 991b a73d 94a9 d13d 1ff8 a6bb c07b 643b
000000f0: 6371 763d db57 ad3d 5cf4 97bb eee7 43bc
00000100: 9fce 44bd db93 abbd 3adc a73d a2fb 9f3c
00000110: 48bf 80bd e2c6 aebd 4951 81bd debc d9bd
00000120: 614e 883d c993 a8bd ac39 58bd 6bf1 a73d
00000130: 85a3 bdbd 6ee0 abbd 8d04 18bd 29bf 053d
00000140: 9290 81bd 910d 403d 099f c03c a9bc 323d
00000150: 44a9 91bc 75b3 91bd 0a9f 8cbd 77ca 43bd
00000160: bb19 dfbd d99f 2bbd 6820 9bbc e5d8 493d
00000170: 7def a8bd 1509 84ba c540 64bd aa76 85bd
00000180: 376f 13bd 75bb 0b3d 51bc 86bd 6186 aebd
00000190: fcc1 b2b9 3629 1bbd 44f3 49bc fa0a acbd
000001a0: 32a7 8e3c eb14 7c3d 4956 7e3d 4c42 7dbd
000001b0: adaf 8abd 9296 60bd 3ee5 db3d 5703 06bd
000001c0: b162 383d 189c 303b e85c 6dbd b2ec 373d
000001d0: 7742 d0bd 2d58 1cbd 0768 c8bd 2d15 be3d
000001e0: dcc3 6c3d a107 983d 4086 c13c 2835 47bc
000001f0: 9cb0 8fbb e0f8 c1bd 1d20 6bbd 3f42 b7bd
00000200: 493b 883d 1d19 dabd f005 d43d 9b29 1cbd
00000210: 98e4 f23c b098 ca3d e0a1 cfbd 9c2a 0f3c
00000220: 6c48 d1bd c6a5 53bc 6ffd 0a3d dce9 b9bd
00000230: e8b9 163c cf34 1abd 3105 8ebc 684f 9cbd
00000240: d953 86bc c5da 54bd 4ce4 9f3d f006 88bd
00000250: a402 d7bd a001 e83d fa20 523d 63ac ce3d
00000260: e807 d63d f0ef ae3c 749a e6bc 5230 26bd
00000270: 8905 8d3d ff0b 3fbd 815e cf3c 95d4 a8bd
00000280: 77b2 c23d 8da4 543d b94f e43d d981 563d
00000290: ba98 363d 998d 10bc 3d42 39bd 7333 85bd
000002a0: 2499 ba3d 801a b63c 08ff e83d 1323 00bd
000002b0: f33d 95bd 5bba acbd 34ca d5bc 8991 ed3c
000002c0: 4bd9 83bb 5418 9a3c dcd7 0a3c d8d9 bebd
000002d0: 7c87 6abb 1b8d ad3d ccf2 6a3d df69 333d
000002e0: 3c19 db3d dadb afbd 7a21 803d ebee 53bc
000002f0: 1c2d e0bd d8af dcbd 88cc e9bd 8249 23bd
00000300: 0161 b73d e6ec c03d 3890 e73d 7053 e4bd
00000310: 5a3f f23c 0ff1 233d b002 99bd d39b 8e3c
00000320: 05a1 533c e935 aa3c fe8c e5bd 210b 063c
00000330: d366 a03b aa70 11bd 9fa7 da3d e29a 4e3c
00000340: 89cf f83c 4f88 6b3d 2453 6c3d 9fe1 9d3b
00000350: be0c ba3d faaa 96bc 0200 773d 45f6 87bd
00000360: 8a39 54bd 622a cbbd 08d0 b83d 911d bfbc
00000370: f8fd 93bc 30c9 473d 0a14 debc 5bde d1bd
00000380: 08a4 9fbb 47c3 25bc a9f0 cf3d 56ac b03c
00000390: 649c 313d 4750 4c3d 759c c33d 284c 823d
000003a0: 2958 c73c 7e71 b1bd 7374 d0bd a555 84bd
000003b0: 34dc 723d f847 07bd b445 b33b 875f 52ba
000003c0: b8a9 3cbd 10fd 9a3d 1f66 693d e8d5 c63d
000003d0: 055c 05bd edca a63c 622c c5bd 83bb d6bd
000003e0: 86f2 473d 6a6b 303d a0ec bdbd 6938 5ebd
000003f0: a108 833d 5236 583c d80b 0abc 91f5 093d

conv1.bias f4 [6]
0.07465485 0.09411816 0.07998904 0.07732805 0.107386 0.02208787
00000000: a4e4 983d 06c1 c03d 4bd1 a33d 2b5e 9e3d
00000010: 31ed db3d 9ff1 b43c

conv2.weight f4 [16, 6, 5, 5]
0.059657887 -0.010102773 0.0046798545 0.010785503 0.02874329 -0.07564669 -0.015294659 0.02728524
0.031495243 0.030262945 -0.0020964544 -0.048659135 -0.018870099 0.060433198 0.05907082 -0.032481987
0.05989376 0.05083238 0.046892814 -0.039474186 0.009978533 -0.00811334 -0.016117094 -0.03277908
0.05338414 -0.036393404 0.055079233 -0.0359982 -0.020097513 0.002311249 0.0160405 0.011318609
0.06709212 -0.07113926 0.071078405 -0.018815638 0.07854779 0.018129464 -0.06923647 -0.07860358
-0.0021928546 -0.05560824 0.01479548 -0.026695956 -0.04663163 -0.047607765 0.035872173 0.009796124
0.047348343 -0.05290381 -0.03041986 -0.03143805 -0.03311911 0.04690095 -0.06530916 0.027875526
-0.041029688 -0.040871 -0.02242273 0.004955344 -0.009386606 -0.029625993 0.05058202 -0.049785197
0.049361296 0.06930568 -0.00018575475 -0.010171059 0.02929684 0.016526682 -0.05122537 0.040592138
0.07045578 0.060917992 -0.050392117 -0.06432061 0.051031433 0.0063564833 -0.048649833 0.009908735
-0.047621757 0.0651542 -0.065610416 -0.041182198 -0.05792189 0.04077152 0.07207705 0.055625338
-0.039742496 -0.01612043 0.060865525 0.009554451 -0.078465536 0.07961143 -0.06010561 0.055171568
-0.07600902 0.018131474 0.042241633 0.029223246 0.04405725 -0.009509177 -0.017145347 -0.043511093
0.07214628 -0.075221755 0.048124943 0.029785212 0.011923347 -0.02846464 -0.055888865 0.03392166
-0.050275832 -0.07949172 0.01758772 -0.0403597 -0.013903743 0.034644365 0.043389287 0.023664879
-0.0544106 -0.025635067 -0.013051835 0.043563265 0.017407348 -0.016593525 0.040848304 0.011372473
0.01484537 -0.042914726 0.07892179 -0.016875446 0.0030904384 -0.010790641 -0.076580025 0.014892968
0.021872964 -0.0034727098 -0.0758959 -0.07471015 0.020959811 -0.06964925 0.010168597 -0.07911067
-0.047727812 -0.033837747 -0.058097005 -0.009158274 0.05899294 0.02408384 0.032259136 -0.08048707
-0.035985712 0.0585625 0.02598664 -0.073180854 -0.067641996 0.03128412 0.004869721 -0.035730924
0.02948215 -0.053420264 0.079328075 0.0029694955 -0.0072351918 0.074875996 -0.06725175 -0.016539158
0.007399152 0.038032867 0.06749263 -0.06503512 -0.020975456 -0.047339898 0.04655735 -0.06571737
0.011125723 0.04030403 0.04434041 0.013965251 0.041980676 0.013611106 0.044969466 -0.002448639
-0.075249396 0.0569436 0.012484757 -0.043385185 -0.030407432 -0.044370674 0.04289137 0.07870899
0.019797748 -0.029943049 0.014986127 -0.0077362256 -0.0068878764 0.032441113 0.054800145 -0.029324278
0.07007659 -0.027316056 0.027576454 0.00030865747 0.034028172 -0.04504006 -0.018889088 -0.0036886488
-0.05611296 0.03517701 0.072717145 -0.07668354 -0.06459237 -0.05845507 0.010959744 0.042346627
-0.035759952 -0.056948498 -0.01801776 -0.026362542 0.054934546 -0.052296996 0.07181862 -0.048621304
-0.048860136 0.05693247 0.017180074 -0.007167938 -0.058098156 -0.063726515 0.072074436 -0.060074568
0.006372813 -0.06765376 0.069621146 0.0014834953 -0.07275529 -0.059482794 0.007477613 0.0051610144
0.033992603 0.05754349 -0.07844219 0.06499026 0.06928755 -0.078446195 -0.005495588 -0.0038886797
0.04112984 -0.05646254 0.019835692 -0.03179865 0.08052005 0.047845785 -0.07210574 0.053504407
00000000: d45b 743d 1a86 25bc 7759 993b aeb5 303c
00000010: 0c77 eb3c a7ec 9abd 7396 7abc 4c85 df3c
00000020: 2801 013d ffe9 f73c ab64 09bb cd4e 47bd
00000030: 7795 9abc cd88 773d 3ff4 713d d50b 05bd
00000040: 2953 753d 9d35 503d ae12 403d afaf 21bd
00000050: 007d 233c d0ed 04bc ff07 84bc 5b43 06bd
00000060: 54a9 5a3d 4011 15bd c39a 613d d972 13bd
00000070: 8aa3 a4bc 5378 173b 5e67 833c b071 393c
00000080: 9867 893d 76b1 91bd 8e91 913d 4123 9abc
00000090: aadd a03d 3e84 943c dacb 8dbd eafa a0bd
000000a0: ffb5 0fbb 77c5 63bd be68 723c 7ab1 dabc
000000b0: cf00 3fbd 5c00 43bd b3ee 123d ec7f 203c
000000c0: 56f0 413d aab1 58bd 1233 f9bc 2fc5 00bd
000000d0: e7a7 07bd 361b 403d cfc0 85bd 375b e43c
000000e0: bf0e 28bd 5a68 27bd e0af b7bc 7060 a23b
000000f0: 47ca 19bc 36b2 f2bc 182f 4f3d 90eb 4bbd
00000100: 122f 4a3d 23f0 8d3d 29c7 42b9 83a4 26bc
00000110: edff ef3c f762 873c b2d1 51bd f143 263d
00000120: 1f4b 903d 2585 793d f767 4ebd 86ba 83bd
00000130: 5606 513d 0c4a d03b 0c45 47bd 3f58 223c
00000140: 080f 43bd 916f 853d c15e 86bd aaae 28bd
00000150: 813f 6dbd 0a00 273d 229d 933d 65d7 633d
00000160: 07c9 22bd fe0e 84bc 214e 793d 468a 1c3c
00000170: 8ab2 a0bd 510b a33d 4d31 76bd 95fb 613d
00000180: 9eaa 9bbd 7588 943c 9005 2d3d 9765 ef3c
00000190: 6075 343d 61cc 1bbc 6674 8cbc b038 32bd
000001a0: 6ec1 933d dd0d 9abd a91e 453d 1e00 f43c
000001b0: 245a 433c ad2e e9bc b9eb 64bd 70f1 0a3d
000001c0: 08ee 4dbd 8ecc a2bd 1f14 903c 3650 25bd
000001d0: 86cc 63bc 40e7 0d3d f7b8 313d d9dc c13c
000001e0: a6dd 5ebd a200 d2bc 5dd7 55bc 656f 323d
000001f0: db99 8e3c 25ef 87bc 8d50 273d 9c53 3a3c
00000200: ff39 733c 5ac7 2fbd bfa1 a13d 603e 8abc
00000210: f488 4a3b 3bcb 30bc fdd5 9cbd a301 743c
00000220: ee2e b33c 6796 63bb 4f6f 9bbd a301 99bd
00000230: e9b3 ab3c 44a4 8ebd 309a 263c c604 a2bd
00000240: 3d7e 43bd 7399 0abd 20f7 6dbd 960c 16bc
00000250: 95a2 713d 794b c53c 2822 043d 68d6 a4bd
00000260: c165 13bd 3bdf 6f3d efe1 d43c d8df 95bd
00000270: e387 8abd c723 003d 2e92 9f3b 975a 12bd
00000280: 8d84 f13c 35cf 5abd c276 a23d de9b 423b
00000290: 3015 edbb 9658 993d 49bb 89bd 217d 87bc
000002a0: 9674 f23b 5ac8 1b3d 9339 8a3d 2231 85bd
000002b0: b8d4 abbc 7be7 41bd ebb2 3e3d d496 86bd
000002c0: aa48 363c d715 253d 4a9e 353d 82ce 643c
000002d0: eef3 2b3d 1e01 5f3c e731 383d 5879 20bb
000002e0: 5b1c 9abd b13d 693d de8c 4c3c aab4 31bd
000002f0: 0219 f9bc 06be 35bd dcae 2f3d 2e32 a13d
00000300: e32e a23c 204b f5bc 5f88 753c 2a80 fdbb
00000310: b2b3 e1bb f9e0 043d 1e76 603d 7839 f0bc
00000320: 5184 8f3d ecc5 dfbc 04e8 e13c 4ed3 a139
00000330: 2061 0b3d ed7b 38bd 4abd 9abc 42bd 71bb
00000340: b4d6 65bd c515 103d baec 943d 430c 9dbd
00000350: 0149 84bd 956e 6fbd 8090 333c a873 2d3d
00000360: 0779 12bd d442 69bd fb99 93bc 42f6 d7bc
00000370: 0c03 613d 6035 56bd a415 933d 2227 47bd
00000380: 9121 48bd 0632 693d 3abd 8c3c 06e1 eabb
00000390: 55f8 6dbd 0c83 82bd c39b 933d c010 76bd
000003a0: 08d3 d03b 0e8e 8abd 8895 8e3d d871 c23a
000003b0: ba00 95bd 3ba4 73bd c406 f53b ba1d a93b
000003c0: d43b 0b3d b9b2 6b3d 4da6 a0bd 9d19 853d
000003d0: a2e6 8d3d 66a8 a0bd 5514 b4bb 38d9 7ebb
000003e0: c377 283d 4445 67bd 767e a23c 4d3f 02bd
000003f0: b2e7 a43d f1f9 433d 2dac 93bd 7027 5b3d

conv2.bias f4 [16]
0.053944647 0.032255508 0.05168522 0.044307437 -0.07317436 0.069042765 0.05530088 0.051989473
0.0021531656 -0.015988322 0.061752286 0.016960448 0.03032491 -0.017357104 -0.07537451 -0.054336067
00000000: 10f5 5c3d 5a1e 043d e2b3 533d b77b 353d
00000010: 70dc 95bd 4b66 8d3d 2d83 623d eaf2 543d
00000020: 201c 0d3b f1f9 82bc f7ef 7c3d a3f0 8a3c
00000030: f26b f83c 7c30 8ebc f35d 9abd 7f8f 5ebd

fc1.weight f4 [120, 400]
0.047043405 -0.0138311675 0.024318747 -0.049170066 0.017142443 -0.035203043 -0.03190768 -0.013821657
-0.005491508 0.033219103 -0.04689658 0.013421855 -0.043087106 -0.028116236 -0.022539826 -0.03645233
-0.008240064 -0.010803226 -0.036938343 0.00078848336 -0.038008586 0.014427948 -0.01675641 0.0055256393
0.036589775 0.037698716 -0.034650058 -0.02390601 0.02355554 -0.018436104 0.0390853 -0.027456986
0.0006078574 -0.039223365 -0.04123575 -0.032866176 0.041126046 -0.0051777447 -0.007299434 -0.02913982
-0.026264483 0.025315348 -0.04874035 0.011445389 0.0017250042 -0.03460617 0.048806332 0.03643069
-0.045569602 -0.041091815 0.01962177 -0.0341085 -0.039185952 -0.0063577048 -0.03654219 0.033138532
-0.04591053 -0.020678664 -0.031356152 0.013687881 0.008046072 -0.01877979 0.04975075 0.016205113
0.017547043 -0.028335795 -0.007928086 -0.0040911315 -0.012169228 -0.035958096 0.023475284 -0.016942227
0.006261901 -0.027572706 0.0062630707 0.048235744 -0.02131073 -0.011023696 0.034857497 0.01764319
0.047021087 0.023512403 -0.043630738 0.039680425 0.008966001 -0.01090682 -0.022082059 0.04223356
0.015902959 -0.024642907 -0.049387224 0.02540222 0.0476168 0.025992474 -0.048664186 0.018609615
-0.00923587 0.027066154 -0.04047667 0.029878214 0.02604161 -0.009617201 0.0036165142 -0.008832762
-0.045162644 0.043723524 0.006991038 0.03296563 -0.019678878 -0.008910089 -0.0151240425 0.02631417
-0.029580176 -0.048530973 -0.040484045 0.03897654 -0.047540855 -0.01117475 -0.006937191 -0.0026269185
-0.036118384 -0.025734143 0.028904703 0.04074056 0.0034672902 -0.0018536089 0.02888484 -0.038559485
0.032766193 0.0405461 0.025086077 -0.0061332295 0.035030436 -0.009315019 -0.0049835644 0.032912675
-0.021597164 0.035939794 -0.014953755 -0.014785511 0.04840597 0.020889867 -0.027508192 -0.0033761365
0.009476345 -0.026839873 -0.010361736 -0.0070728995 0.049224842 0.037654094 0.02871102 -0.006331558
-0.027526049 0.042478587 0.038485795 -0.037005518 0.013491387 0.0155176455 0.028294805 0.034044664
0.026285134 0.047009747 -0.044930715 -0.031147521 -0.048551578 -0.03686815 0.027686507 0.023136845
0.042491022 0.020503357 0.0017776752 -0.045466486 0.04727296 -0.023816653 -0.008091671 0.04781983
-0.02089247 0.030047024 -0.032782763 -0.005486761 0.03822283 -0.032496307 0.013043251 -0.027524853
0.027806308 -0.028435806 0.0018234408 -0.00190054 -0.041297536 0.041180644 -0.026611514 -0.008857689
-0.013891816 -0.044445433 -0.049943503 -0.0036755693 0.0038046648 0.04049303 -0.022946564 0.0027716176
-0.0025799992 -0.009175547 0.04738407 0.037165605 -0.049052317 -0.018566938 -0.035198413 -0.036324326
-0.029837582 -0.018758316 -0.032086946 -0.011676757 0.013102819 -0.01619646 0.049840618 0.019969946
0.048905946 0.04599014 -0.047897466 0.029611932 0.016102523 0.048968058 0.024255985 -0.029825198
-0.03131071 -0.037990008 -0.02810829 -0.0034745552 -0.044323683 -0.0427983 -0.017180996 0.037438966
0.04591489 -0.020566646 -0.022794163 0.045580618 0.021885963 -0.029992536 0.030427642 -0.023937855
0.001666121 -0.04020551 0.008910772 -0.042843383 0.020551039 -0.016336167 0.008639536 0.017028367
-0.013863285 0.044774294 0.049169097 0.031809278 0.01177643 0.049153708 -0.016832102 -0.024587277
00000000: 96b0 403d 1f9c 62bc 1c38 c73c 8d66 49bd
00000010: 4f6e 8c3c 1131 10bd a1b1 02bd 3b74 62bc
00000020: 1cf2 b3bb c110 083d a116 40bd 57e7 5b3c
00000030: 1b7c 30bd 0554 e6bc 71a5 b8bc 0a4f 15bd
00000040: 5501 07bc 0400 31bc a94c 17bd 39b2 4e3a
00000050: e4ae 1bbd 3363 6c3c bd44 89bc 6c10 b53b
00000060: 29df 153d f869 1a3d 38ed 0dbd 89d6 c3bc
00000070: 8cf7 c03c 5007 97bc e817 203d 79ed e0bc
00000080: 9f58 1f3a aea8 20bd d1e6 28bd af9e 06bd
00000090: c973 283d 12aa a9bb 1730 efbb a2b6 eebc
000000a0: 9d28 d7bc 2262 cf3c f6a3 47bd 7185 3b3c
000000b0: 8919 e23a 33bf 0dbd 26e9 473d 5938 153d
000000c0: 31a7 3abd e44f 28bd d6bd a03c 5bb5 0bbd
000000d0: 7381 20bd 4b54 d0bb 43ad 15bd 45bc 073d
000000e0: ae0c 3cbd 4d66 a9bc 4f6f 00bd 2243 603c
000000f0: acd3 033c 13d8 99bc 71c7 4b3d 96c0 843c
00000100: d1be 8f3c 7820 e8bc cee4 01bc e60e 86bb
00000110: 7161 47bc cc48 13bd 3d4f c03c 6dca 8abc
00000120: a230 cd3b 28e0 e1bc 723a cd3b d892 453d
00000130: d793 aebc bb9c 34bc bcc6 0e3d 7488 903c
00000140: 2f99 403d 159d c03c 25b6 32bd f187 223d
00000150: 22e6 123c 85b2 32bc 6fe5 b4bc 19fd 2c3d
00000160: ec46 823c ecdf c9bc 424a 4abd 5118 d03c
00000170: d509 433d 2bee d43c 1954 47bd 3173 983c
00000180: 0c52 17bc d7b9 dd3c ddca 25bd 28c3 f43c
00000190: 3755 d53c 7791 1dbc 0a03 6d3b 4ab7 10bc
000001a0: 77fc 38bd 7017 333d 1415 e53b f806 073d
000001b0: 9935 a1bc 9ffb 11bc d5ca 77bc d090 d73c
000001c0: 2052 f2bc 6ac8 46bd 99d2 25bd dda5 1f3d
000001d0: 33ba 42bd 4c16 37bc 6051 e3bb 6128 2cbb
000001e0: dff0 13bd 69d0 d2bc 8ec9 ec3c 93df 263d
000001f0: 7a3b 633b cbf4 f2ba e69f ec3c 8df0 1dbd
00000200: d835 063d ab13 263d 5181 cd3c 42f9 c8bb
00000210: 137c 0f3d 059e 18bc 2b4d a3bb 71cf 063d
00000220: 89ec b0bc 9b35 133d 9800 75bc ee3e 72bc
00000230: 5745 463d 3a21 ab3c dc58 e1bc 2c42 5dbb
00000240: ac42 1b3c 4bdf dbbc 45c4 29bc c8c3 e7bb
00000250: fd9f 493d 2e3b 1a3d 5f33 eb3c f578 cfbb
00000260: 4f7e e1bc 07fe 2d3d 48a3 1d3d 1993 17bd
00000270: fa0a 5d3c b93d 7e3c 82ca e73c 6b72 0b3d
00000280: ec53 d73c 4b8d 403d 4509 38bd 1629 ffbc
00000290: 05de 46bd 0f03 17bd d0ce e23c 7b89 bd3c
000002a0: 110b 2e3d a8f6 a73c e200 e93a 113b 3abd
000002b0: 4ba1 413d 241b c3bc ee92 04bc bade 433d
000002c0: af26 abbc 2d25 f63c 3847 06bd 4aca b3bb
000002d0: 8b8f 1c3d d91a 05bd 5cb3 553c cd7b e1bc
000002e0: 0eca e33c 35f2 e8bc 8500 ef3a 8a1b f9ba
000002f0: 9b27 29bd 09ad 283d 6400 dabc d71f 11bc
00000300: 809a 63bc 6a0c 36bd 8f91 4cbd d2e1 70bb
00000310: af57 793b 05dc 253d 6ffa bbbc 07a4 353b
00000320: 3415 29bb 0955 16bc cc15 423d f63a 183d
00000330: 15eb 48bd b119 98bc 362c 10bd d1c8 14bd
00000340: f26d f4bc 0aab 99bc 9a6d 03bd de4f 3fbc
00000350: 35ad 563c 70ae 84bc ad25 4c3d 0398 a33c
00000360: 9a51 483d 2860 3c3d 2230 44bd b994 f23c
00000370: 70e9 833c bb92 483d 7db4 c63c f953 f4bc
00000380: a93f 00bd 699b 1bbd 5b43 e6bc 5db5 63bb
00000390: c08c 35bd 454d 2fbd 29bf 8cbc 9a59 193d
000003a0: 4011 3c3d 627b a8bc d3ba babc beb2 3a3d
000003b0: 314a b33c e8b2 f5bc 6443 f93c 5219 c4bc
000003c0: be61 da3a 88ae 24bd 7dfe 113c 8b7c 2fbd
000003d0: a75a a83c 6dd3 85bc d78c 0d3c 137f 8b3c
000003e0: d522 63bc 4065 373d 8965 493d 724a 023d
000003f0: edf1 403c 6655 493d 7ae3 89bc 426b c9bc

fc1.bias f4 [120]
-0.03266747 -0.002754146 0.029773915 0.020538218 -0.0456151 -0.02552497 -0.040269427 -0.046790387
0.0020955973 0.03565074 0.049423214 0.044083625 0.012867703 -0.035874072 0.04704779 -0.04143364
0.0077602924 0.049909323 -0.03722253 0.012437331 -0.028975673 -0.041854043 -0.006209886 -0.014345807
0.014939677 0.026818205 -0.033901535 -0.02295739 0.017508335 -0.007752031 0.03112348 -0.04247353
0.029135874 0.023071645 0.023405712 0.003616982 0.040955033 0.041849826 0.048316356 -0.04556286
-0.045165613 0.02076645 -0.037744723 -0.02595328 -0.004348272 0.024412893 0.009031635 -0.03161688
0.030047612 -0.004850549 -0.008491259 0.016413346 -0.032286994 -0.011363488 0.033941057 -0.025020305
0.011718055 -0.019764077 -0.03682545 -0.035052273 0.038616642 -0.031559587 -0.023101326 0.03046139
-0.048353825 0.03881595 0.018371083 -0.020672826 0.0049376725 0.040367436 -0.019866224 0.043926097
-0.0051567084 0.028802127 -0.03838235 0.024841713 -0.017793879 0.04389868 0.0056948066 -0.026641315
-0.03420753 -0.019444112 -0.010691068 0.03514539 -0.009469548 0.032070454 -0.04501162 -0.014462527
0.0011043407 0.037916802 0.033641387 -0.011599755 0.04814823 0.025516773 0.037105456 0.006306655
0.028299086 0.0016368977 0.03895833 0.016068721 0.0069337916 0.01471347 -0.0124261435 -0.0012073693
-0.018632453 -0.028549237 -0.011868127 0.0030894657 0.023458933 -0.017632868 0.0116956895 0.031179326
-0.0041752374 0.0077187973 0.00074203144 -0.04373426 0.008288803 -0.009292145 0.035298467 -0.038713336
00000000: 53ce 05bd e77e 34bb 6de8 f33c c43f a83c
00000010: e6d6 3abd be19 d1bc 8ef1 24bd 47a7 3fbd
00000020: 4a56 093b 8306 123d ff6f 4a3d 0891 343d
00000030: 0fd3 523c b1f0 12bd 2fb5 403d 52b6 29bd
00000040: 0d4a fe3b b86d 4c3d a776 18bd f2c5 4b3c
00000050: 645e edbc 256f 2bbd 4d7c cbbb ad0a 6bbc
00000060: 8cc5 743c dab1 db3c 56dc 0abd 2311 bcbc
00000070: a46d 8f3c c004 febb abf6 fe3c b9f8 2dbd
00000080: 5bae ee3c bf00 bd3c 56bd bf3c e30a 6d3b
00000090: 77c0 273d b96a 2b3d 5fe7 453d 1fa0 3abd
000000a0: 94ff 38bd 671e aa3c 369a 1abd f99b d4bc
000000b0: f37b 8ebb 8cfd c73c 6cf9 133c b480 01bd
000000c0: 6926 f63c 5bf1 9ebb ec1e 0bbc 4875 863c
000000d0: 5e3f 04bd ec2d 3abc c705 0b3d 62f7 ccbc
000000e0: 16fd 3f3c 46e8 a1bc 48d6 16bd f992 0fbd
000000f0: 7c2c 1e3d a044 01bd fe3e bdbc 2a8a f93c
00000100: a90e 46bd 79fd 1e3d f47e 963c 0f5a a9bc
00000110: 33cc a13b 5358 253d 7ebe a2bc daeb 333d
00000120: 9bf9 a8bb 70f2 eb3c d036 1dbd d980 cb3c
00000130: 78c4 91bc 1acf 333d 809b ba3b e33e dabc
00000140: 321d 0cbd 4249 9fbc 9729 2fbc 9df4 0f3d
00000150: 2a26 1bbc 4f5c 033d 1b5e 38bd 3cf4 6cbc
00000160: 86bf 903a a64e 1b3d 8dcb 093d e60c 3ebc
00000170: 1437 453d 8d08 d13c e4fb 173d 0ea8 ce3b
00000180: 7cd3 e73c 2c8d d63a c592 1f3d 8da2 833c
00000190: dc34 e33b c410 713c 0697 4bbc 9740 9eba
000001a0: 16a3 98bc 17e0 e9bc 8872 42bc a278 4a3b
000001b0: f32c c03c ce72 90bc 479f 3f3c c96b ff3c
000001c0: 6ed0 88bb f7ed fc3b e384 423a b222 33bd
000001d0: c2cd 073c 153e 18bc 2095 103d e091 1ebd

fc2.weight f4 [64, 120]
0.013732426 0.07109257 0.07480683 0.008195567 0.008863191 -0.090416975 0.05137235 0.047809415
-0.08806724 -0.08698261 -0.01181372 -0.033328198 0.044017337 0.06718711 0.0027174451 0.07715173
0.03334917 -0.07572731 -0.014247556 0.057882752 -0.079937726 0.07491713 -0.022612821 -0.078507096
0.08599273 0.022324419 -0.07817497 -0.004839485 -0.0818614 -0.072419584 -0.004676538 0.026590552
0.08726328 0.010870269 -0.065206446 -0.08267825 -0.0837644 0.021059118 -0.015409547 0.088256955
-0.024317995 -0.009264036 -0.01248246 -0.023281269 -0.06652283 -0.012696232 0.036731843 -0.0029944056
-0.048130117 0.04811652 0.028466169 -0.08149444 0.076251246 -0.0016229957 0.054534215 0.06736574
0.022532895 0.039374728 -0.08836177 -0.084283054 0.032566704 -0.082372114 -0.024706915 0.02920163
0.041474793 0.034261096 -0.04874657 0.01223053 0.012040387 -0.016904349 -0.07735702 0.06547676
0.003023279 0.018807294 0.031848818 0.022073328 -0.014901702 0.089361675 0.003852186 0.00062415336
-0.0023484682 0.062168892 0.030938221 0.038546693 0.053624786 0.049082305 0.09120837 0.0006351784
-0.05088066 0.037527196 0.053373 0.00791347 -0.012251074 -0.008707029 0.021465119 0.05402288
-0.014214058 -0.06337171 -0.08285626 0.03410546 -0.04822973 0.07440133 -0.07066558 0.044346754
0.07522202 -0.0384604 -0.068403095 -0.08059403 0.081104174 -0.07642371 0.06163582 -0.009532305
0.0859676 0.059399724 0.019272367 0.053816184 -0.04637489 -0.017879799 -0.0011592245 0.083832555
-0.089809895 0.09110606 -0.054567102 -0.079265624 0.056670684 0.019335194 -0.02187158 0.070871264
0.01684394 0.060981486 0.057399422 0.041368887 -0.087045036 -0.076170035 -0.03207735 -0.005500467
-0.08053321 0.086915664 0.07501804 0.07863111 -0.019010605 0.05475643 -0.021896014 0.07102961
-0.06888694 0.036103792 0.0904642 -0.071578406 0.06930396 0.0493841 0.038696617 0.08569175
-0.052397743 0.013283852 -0.08210002 -0.061610293 0.06077756 0.07160467 -0.04643252 -0.035384275
0.08193211 0.026927074 0.08054102 -0.04979997 0.014201381 -0.0037467713 0.038801167 0.034712717
0.069931865 0.002317808 -0.06645273 0.04627534 -0.053754337 0.05832257 0.047256257 0.042097557
-0.037771933 -0.08121667 -0.01453348 -0.022226708 -0.06188197 -0.05321773 0.008179064 -0.08579179
-0.05779028 0.03628258 0.07233797 -0.05753378 0.020765377 -0.028657313 0.06925073 0.09059541
-0.06298302 -0.036901273 0.07014804 -0.077536054 0.075623944 -0.02971995 -0.021768587 -0.07595872
-0.036796834 -0.05542847 -0.07200082 0.07149603 -0.0733539 -0.025825415 0.032738615 -0.028099738
0.057485685 0.072952196 0.02362199 -0.011149459 -0.046231326 -0.06323335 0.056482557 -0.0911215
-0.039914493 -0.077447966 0.04407104 -0.08913779 0.02582501 0.016335448 0.081681535 -0.05229183
0.037227865 0.011032575 0.067898124 0.01324738 0.08740307 -0.07114615 -0.063160054 0.0728116
-0.027196871 -0.035764534 0.08988734 -0.023069836 -0.01236877 0.010132693 0.083908044 0.08682625
-0.090966165 0.04987488 0.04318653 -0.0030267506 -0.07796302 0.07623995 -0.03866133 -0.04203876
0.05555211 -0.06933635 -0.04484105 -0.057872605 0.04575773 -0.024167277 -0.05669591 -0.01957561
00000000: f8fd 603c fb98 913d 5334 993d b346 063c
00000010: eb36 113c 892c b9bd d06b 523d ced3 433d
00000020: 995c b4bd f023 b2bd 558e 41bc 2683 08bd
00000030: 864b 343d 6599 893d 2a17 323b ba01 9e3d
00000040: 2499 083d eb16 9bbd 956e 69bc 7716 6d3d
00000050: 64b6 a3bd 276e 993d 863e b9bc 54c8 a0bd
00000060: f51c b03d b3e1 b63c 331a a0bd 8b94 9ebb
00000070: f3a6 a7bd b850 94bd a53d 99bb 6ed4 d93c
00000080: 17b7 b23d 3619 323c f58a 85bd 3753 a9bd
00000090: ab8c abbd 2c84 ac3c 5378 7cbc 10c0 b43d
000000a0: 8836 c7bc 2fc8 17bc 3b83 4cbc 5cb8 bebc
000000b0: 1f3d 88bd db03 50bc 2174 163d ca3d 44bb
000000c0: 1624 45bd d415 453d e231 e93c 8fe6 a6bd
000000d0: 9d29 9c3d b3ba d4ba 455f 5f3d 0df7 893d
000000e0: e896 b83c 6547 213d 04f7 b4bd 989c acbd
000000f0: aa64 053d b6b2 a8bd 2866 cabc 4238 ef3c
00000100: 79e1 293d 5d55 0c3d 7caa 47bd 9062 483c
00000110: 0b45 453c fd7a 8abc 5b6d 9ebd ae18 863d
00000120: 3422 463b c111 9a3c e873 023d 20d3 b43c
00000130: 4526 74bc 4103 b73d f574 7c3b 399e 233a
00000140: c2e8 19bb cfa4 7e3d 2772 fd3c 23e3 1d3d
00000150: aaa5 5b3d 870a 493d 74cb ba3d 1a82 263a
00000160: 3d68 50bd 1eb6 193d a69d 5a3d 80a7 013c
00000170: bbb8 48bc eda7 0ebc 9ed7 af3c 1847 5d3d
00000180: 15e2 68bc 07c9 81bd 8bb0 a9bd 2bb2 0b3d
00000190: 8a8c 45bd b95f 983d 1eb9 90bd f1a4 353d
000001a0: 010e 9a3d a788 1dbd ec16 8cbd 7c0e a5bd
000001b0: f219 a63d 0984 9cbd d775 7c3d 632d 1cbc
000001c0: c80f b03d 204d 733d 15e1 9d3c 5c6e 5c3d
000001d0: 99f3 3dbd a878 92bc 1ff1 97ba 67b0 ab3d
000001e0: 40ee b7bd d095 ba3d c181 5fbd 0456 a2bd
000001f0: 851f 683d d764 9e3c 072c b3bc f424 913d
00000200: 4dfc 893c b9c7 793d a81b 6b3d 6c72 293d
00000210: ab44 b2bd 09ff 9bbd 8a63 03bd 433d b4bb
00000220: 98ee a4bd d700 b23d 0fa3 993d 5909 a13d
00000230: 21bc 9bbc 4748 603d 455f b3bc f977 913d
00000240: 9914 8dbd 92e1 133d 4b45 b93d b397 92bd
00000250: 3cef 8d3d fb46 4a3d 5880 1e3d 287f af3d
00000260: 049f 56bd 83a4 593c 0e24 a8bd 135b 7cbd
00000270: e4f1 783d 78a5 923d 0730 3ebd 1aef 10bd
00000280: 06cc a73d 2b96 dc3c b1f2 a43d 0efb 4bbd
00000290: e9ac 683c 648c 75bb f9ed 1e3d ec2e 0e3d
000002a0: 7038 8f3d 5ee6 173b 5e18 88bd 368b 3d3d
000002b0: 822d 5cbd a6e3 6e3d c78f 413d 7d6e 2c3d
000002c0: beb6 1abd ed54 a6bd d51d 6ebc c914 b6bc
000002d0: f377 7dbd d6fa 59bd 7b01 063c 9bb3 afbd
000002e0: 80b5 6cbd 0b9d 143d ee25 943d 8aa8 6bbd
000002f0: 271c aa3c bec2 eabc 54d3 8d3d 168a b93d
00000300: 3efd 80bd ca25 17bd c7a9 8f3d 39cb 9ebd
00000310: bae0 9a3d 4177 f3bc 0954 b2bc 3f90 9bbd
00000320: 47b8 16bd f708 63bd 2a75 93bd 836c 923d
00000330: 923a 96bd d28f d3bc ed18 063d 6c31 e6bc
00000340: 1c76 6b3d f667 953d e782 c13c 38ac 36bc
00000350: 0f5d 3dbd 7d80 81bd 415a 673d e99d babd
00000360: 617d 23bd 0a9d 9ebd d683 343d e08d b6bd
00000370: f98e d33c ebd1 853c a648 a73d f52f 56bd
00000380: 3f7c 183d f9c1 343c 2c0e 8b3d 8a0b 593c
00000390: 6100 b33d 13b5 91bd 0f5a 81bd 401e 953d
000003a0: f9cb debc d57d 12bd db16 b83d f4fc bcbc
000003b0: 62a6 4abc 9803 263c fbd7 ab3d f6d1 b13d
000003c0: 784c babd 9a49 4c3d 5ce4 303d 735c 46bb
000003d0: 13ab 9fbd b123 9c3d 585b 1ebd d630 2cbd
000003e0: 9c8a 633d 3700 8ebd 40ab 37bd d30b 6dbd
000003f0: 756c 3b3d 74fa c5bc f839 68bd 085d a0bc

fc2.bias f4 [64]
-0.004844735 0.036603693 0.061648376 0.013041675 0.0022516737 -0.0555293 0.08773644 0.05768247
-0.011632303 0.06297805 -0.03042369 -0.088323705 -0.06903164 -0.04060706 -0.007472185 -0.032465115
0.057799913 0.07488047 0.0576591 -0.03229599 0.039994195 0.024801461 -0.012125638 -0.059386812
0.033969328 0.070432566 0.044537 -0.029052064 0.06437403 0.00811605 0.029718127 -0.06736555
0.044219386 -0.014110087 0.045613315 0.014880082 0.060758237 0.0857328 -0.06906303 0.06845035
-0.01603271 0.08767995 0.051815856 0.07777623 -0.072410576 -0.028003814 -0.013271156 -0.0033586288
0.0072502275 0.027623465 -0.06415825 0.05698961 -0.091456234 0.054973584 -0.014078583 -0.008641059
-0.009399637 0.0130991535 -0.08883509 0.031694043 -0.08144218 -0.015420801 0.01545928 0.055079315
00000000: 95c0 9ebb c1ed 153d 0283 7c3d c0ac 553c
00000010: d190 133b b172 63bd 2aaf b33d 7444 6c3d
00000020: 6a95 3ebc a3fa 803d 1a3b f9bc 0fe3 b4bd
00000030: 7660 8dbd 9753 26bd 3bd9 f4bb 24fa 04bd
00000040: 9abf 6c3d ef5a 993d f32b 6c3d cd48 04bd
00000050: f4d0 233d 6f2c cb3c 9daa 46bc 963f 73bd
00000060: 6c23 0b3d f33e 903d 6e6c 363d 98fe edbc
00000070: 88d6 833d 2ef9 043c 6e73 f33c f3f6 89bd
00000080: 631f 353d ff2d 67bc 07d5 3a3d 96cb 733c
00000090: a1dd 783d ae94 af3d eb70 8dbd b22f 8c3d
000000a0: 0857 83bc 8c91 b33d dd3c 543d 2549 9f3d
000000b0: ff4b 94bd 4168 e5bc 436f 59bc 711c 5cbb
000000c0: 5193 ed3b 9b4a e23c 6765 83bd f06d 693d
000000d0: 684d bbbd fb2b 613d dba9 66bc 3a93 0dbc
000000e0: ef00 1abc d59d 563c 2cef b5bd 9dd1 013d
000000f0: 28cb a6bd 87a7 7cbc ec48 7d3c d99a 613d

fc_out.weight f4 [2, 64]
-0.08607075 -0.09475777 0.097338185 -0.02699262 -0.066825554 0.016480481 -0.010551565 0.06556685
0.043823667 0.05693147 -0.043404564 -0.06745685 -0.022660838 -0.092562996 -0.04938692 -0.10391195
-0.048124745 0.041666426 -0.0897854 -0.0768341 0.1183236 0.0070801945 0.028502448 -0.05876906
-0.085814916 0.030207755 -0.039906673 -0.07405346 0.008249109 0.07100883 0.051146813 -0.09360106
-0.07599795 0.03338713 0.023188367 -0.0137314405 0.064592965 0.090055496 0.10124611 0.10364655
-0.09724057 0.048210822 -0.0538874 -0.10321406 0.018337026 -0.115949914 -0.024211492 -0.113855414
0.0029595438 -0.0014164116 -0.05000353 -0.07590843 -0.07561104 0.092649795 0.051051687 -0.06624816
-0.06426858 -0.0969083 0.037155524 0.008204354 -0.06570115 0.0517189 0.11042511 0.05554885
-0.0460497 -0.09115579 0.03400344 0.074727125 -0.042478718 0.06452406 0.011412795 -0.051983416
0.0828904 0.018967248 -0.11373593 0.04661383 0.06963677 -0.025816618 -0.01783211 0.01427957
0.096280016 -0.060768686 -0.06702891 0.03995203 -0.066204205 0.018140215 0.0131273 0.0958629
0.055675965 0.08232179 0.06617309 0.06327363 -0.11154713 -0.08852977 -0.054545738 -0.04592435
0.05968829 -0.009723574 -0.11090379 0.007028991 0.09956108 0.09555592 -0.10097851 0.067055576
0.08446521 0.051698036 0.060959857 0.018457865 0.07435746 -0.031627353 -0.00259 0.104073204
0.01978717 0.0002537637 0.051586717 0.0016129361 -0.07454912 -0.08883991 0.0100578 0.02781932
-0.11262334 0.017856348 0.1033193 0.036133826 0.10831046 0.03103036 -0.11113607 0.014102737
00000000: dd45 b0bd 5d10 c2bd 3e59 c73d a11f ddbc
00000010: d6db 88bd 1302 873c 79e0 2cbc ea47 863d
00000020: 7280 333d f930 693d fcc8 31bd d126 8abd
00000030: 39a3 b9bc ab91 bdbd f049 4abd cacf d4bd
00000040: 741e 45bd 6aaa 2a3d 68e1 b7bd 325b 9dbd
00000050: a553 f23d fa00 e83b f77d e93c d3b7 70bd
00000060: bbbf afbd 4176 f73c 2e75 23bd 57a9 97bd
00000070: 4527 073c 146d 913d 527f 513d eab1 bfbd
00000080: d0a4 9bbd f1c0 083d 88f5 bd3c d6f9 60bc
00000090: 5149 843d 046f b83d 1f5a cf3d a444 d43d
000000a0: 1026 c7bd b678 453d 09b9 5cbd e561 d3bd
000000b0: 8837 963c 2677 edbd 2e57 c6bc 072d e9bd
000000c0: e8f4 413b e3a6 b9ba 80d0 4cbd e175 9bbd
000000d0: f6d9 9abd 2dbf bd3d 931b 513d 1ead 87bd
000000e0: 3f9f 83bd dc77 c6bd 6430 183d 8e6b 063c
000000f0: 538e 86bd 33d7 533d 8f26 e23d 3187 633d
00000100: 9c9e 3cbd e3af babd 3147 0b3d 890a 993d
00000110: 2afe 2dbd 3125 843d bbfc 3a3c 90ec 54bd
00000120: 71c2 a93d 3461 9b3c 62ee e8bd 25ee 3e3d
00000130: b99d 8e3d 5f7d d3bc a514 92bc dcf4 693c
00000140: 752e c53d 96e8 78bd 7446 89bd bda4 233d
00000150: 1296 87bd ca9a 943c e313 573c c553 c43d
00000160: 7b0c 643d 5498 a83d c285 873d 9b95 813d
00000170: d272 e4bd 194f b5bd 5a6b 5fbd 2c1b 3cbd
00000180: b57b 743d a04f 1fbc 8721 e3bd 7353 e63b
00000190: aee6 cb3d d2b2 c33d d2cd cebd 6f54 893d
000001a0: 19fc ac3d 52c1 533d 0bb1 793d f334 973c
000001b0: b948 983d af8b 01bd fdbc 29bb 5524 d53d
000001c0: b418 a23c 960b 8539 984c 533d 2869 d33a
000001d0: 36ad 98bd b3f1 b5bd 79c9 243c 58e5 e33c
000001e0: 11a7 e6bd 7a47 923c 1299 d33d 1001 143d
000001f0: e0d1 dd3d 6233 fe3c 4f9b e3bd 2b0f 673c

fc_out.bias f4 [2]
-0.07272994 -0.042321723
00000000: 6ff3 94bd 8b59 2dbd
